…
 parameter reduction\n\nMulti-Scale Turbulence:\n  U-FNO processed 4 scale levels in 6826.6ms\n\nUncertainty Quantification:\n  UQNO epistemic uncertainty ratio: 0.000\n  UQNO aleatoric uncertainty ratio: 1.000\n\nMolecular Dynamics:\n  MGNO force conservation error: 112.030533\n\nEnsemble Methods:\n  Multi-operator agreement score: 0.627\n\nDemo completed successfully!\nResults stored in demo.results\n\nResults saved to: examples_output/neural_operators_demo_results.json\n</code></pre></p> Operator Demo Task Input Shape Output Shape Forward Time U-FNO (4 levels) Turbulent flow (4, 3, 64, 64) (4, 3, 64, 64) 6826.56 ms SFNO (lmax=16) Global climate (2, 5, 32, 64) (2, 5, 32, 64) 826.79 ms UQNO (50 samples) Uncertainty (2, 32, 32, 2) (2, 32, 32, 1) 3289.85 ms GINO (attention) Airfoil geometry (2, 64, 64, 2) (2, 64, 64, 2) 2473.02 ms MGNO (degree=3) Molecular forces (2, 48, 4) + (2, 48, 3) (2, 48, 3) 2658.08 ms FNO (ensemble) Benchmark (4, 2, 32, 32) (4, 1, 32, 32) 1057.42 ms TFNO (ensemble) Benchmark (4, 2, 32, 32) (4, 1, 32, 32) 526.24 ms LocalFNO (ensemble) Benchmark (4, 2, 32, 32) (4, 1, 32, 32) 1049.14 ms"},{"location":"examples/neural-operators/operator-tour/#parameter-counts","title":"Parameter Counts","text":"Operator Model Parameters Compression vs Standard FNO Standard FNO 279,105 1.0x (baseline) Tucker TFNO (10%) 4,194,625 0.1x CP TFNO 4,194,625 0.1x U-FNO (3 levels) 27,977,601 0.0x"},{"location":"examples/neural-operators/operator-tour/#what-we-achieved","title":"What We Achieved","te
…
